python small_CNN.py
Using Theano backend.
_________________________________________________________________
Layer (type)                 Output Shape              Param #
=================================================================
conv2d_1 (Conv2D)            (None, 32, 32, 32)        896
_________________________________________________________________
dropout_1 (Dropout)          (None, 32, 32, 32)        0
_________________________________________________________________
conv2d_2 (Conv2D)            (None, 32, 32, 32)        9248
_________________________________________________________________
max_pooling2d_1 (MaxPooling2 (None, 32, 16, 16)        0
_________________________________________________________________
conv2d_3 (Conv2D)            (None, 64, 16, 16)        18496
_________________________________________________________________
dropout_2 (Dropout)          (None, 64, 16, 16)        0
_________________________________________________________________
conv2d_4 (Conv2D)            (None, 64, 16, 16)        36928
_________________________________________________________________
max_pooling2d_2 (MaxPooling2 (None, 64, 8, 8)          0
_________________________________________________________________
flatten_1 (Flatten)          (None, 4096)              0
_________________________________________________________________
dense_1 (Dense)              (None, 512)               2097664
_________________________________________________________________
dropout_3 (Dropout)          (None, 512)               0
_________________________________________________________________
dense_2 (Dense)              (None, 10)                5130
=================================================================
Total params: 2,168,362
Trainable params: 2,168,362
Non-trainable params: 0
_________________________________________________________________
None
Epoch 1/150
13/12 [===============================] - 7s - loss: 2.3089 - acc: 0.1155 - val_loss: 2.2861 - val_acc: 0.1200
Epoch 2/150
13/12 [===============================] - 6s - loss: 2.2658 - acc: 0.1550 - val_loss: 2.2497 - val_acc: 0.2150
…
